backend/django_app/graph/model/deep_reasoning_gnn_model.pth (torch, 402618 bytes, 16 tensors)

convs.0.bias f4 [128]
0	0x3c3253de	0.010884253
1	0xbabac46e	-0.0014249214
2	0x3c439f76	0.011939874
3	0x3c271fef	0.010200485
4	0xba8fbeae	-0.0010966861
5	0xbcac0480	-0.02099824
6	0xbb35bbb4	-0.0027730288
7	0xbc0b230f	-0.008492245
8	0x3be085ff	0.006851911
9	0x3beb721f	0.007185235
10	0xbc87732c	-0.01653441
11	0x3c414442	0.011796059
12	0x3bc99e48	0.006152902
13	0x39860b7e	0.00025567034
14	0xbc6a68d9	-0.014307224
15	0x3b83676b	0.004010131
16	0x3c07381b	0.008253123
17	0x3bba0a10	0.005677469
18	0x3c1b5959	0.009481751
19	0x3c2ed1ac	0.010670107
20	0x3bf4ce19	0.007470858
21	0xbad5a71d	-0.0016300414
22	0x3bb5b0ba	0.005544749
23	0x3c216265	0.009850119
24	0x3bc84528	0.0061117597
25	0x3ba5bd95	0.0050580003
26	0xbbd4b62c	-0.006491443
27	0xbc0469d4	-0.008081872
28	0x3bfc2c07	0.007695678
29	0x3ba888aa	0.0051432448
30	0x3c1d771c	0.009610917
31	0x3c4a946a	0.012364486
32	0x3c1a73c0	0.009427011
33	0x3a5af4c1	0.0008352511
34	0x3c4400c0	0.011963069
35	0xbc587a0e	-0.013212694
36	0x3bba5aef	0.0056871097
37	0x3c38f215	0.011288186
38	0xbb2b3dcb	-0.002612936
39	0x3c5daafc	0.013529535
40	0xbca8b3e5	-0.020593593
41	0x3c33044b	0.0109263165
42	0x3c20b84b	0.009809564
43	0x3c0110b9	0.007877522
44	0xbbc74bd1	-0.006082036
45	0x3c2bd7fe	0.010488508
46	0x3bf2543c	0.0073952954
47	0x3bbb8acb	0.0057233325
48	0x3c336d07	0.010951287
49	0x3c375641	0.011189998
50	0x3ab36d5d	0.0013689209
51	0x3c0d0869	0.008607962
52	0xbc5e7ef6	-0.0135800745
53	0x3bdc5962	0.0067245224
54	0x3c30a874	0.01078235
55	0x3c2c38c0	0.010511577
56	0x3c2a39b1	0.010389731
57	0x3c23a661	0.009988398
58	0xba561d2b	-0.00081677985
59	0xbc11a63c	-0.008889731
60	0xbc63ce67	-0.013904191
61	0x3c375178	0.011188857
62	0xbb75606a	-0.00374415
63	0xba7f9189	-0.00097491645
64	0x3c1eb2be	0.00968617
65	0x3bb44bb7	0.00550219
66	0x3c2c45a8	0.010514654
67	0x3c28c542	0.010300936
68	0x3a0012a8	0.00048855925
69	0xbc125506	-0.008931404
70	0x3c0edbb4	0.0087193735
71	0x3ba68e36	0.005082871
72	0xbb4bb15b	-0.0031081054
73	0x3c2811a2	0.01025811
74	0x3bffc999	0.0078060147
75	0x3c05344b	0.008130143
76	0x3b2bbe50	0.0026205964
77	0xb9edebe4	-0.00045379915
78	0x3bbc6394	0.0057491753
79	0x3c5446fb	0.012956376
80	0x3c1a9e20	0.009437114
81	0x3c0f1484	0.008732919
82	0xbb38681d	-0.0028138228
83	0x3c3f7bd9	0.011687242
84	0x3c1c2ece	0.0095326435
85	0xbb0fdc0e	-0.0021951231
86	0x3c224259	0.009903514
87	0x3ba276ce	0.0049580103
88	0x3c29e4e9	0.010369518
89	0x3c095ee5	0.008384441
90	0x3bca696b	0.0061771176
91	0x3c1deca5	0.00963894
92	0xbc964bdc	-0.01834672
93	0x3c36ed36	0.011164954
94	0x3c584231	0.013199375
95	0x393d5032	0.0001805432
96	0xbb965e81	-0.0045889025
97	0xbc90baed	-0.017667258
98	0x3c38b74a	0.011274168
99	0x3c2765bf	0.010217129
100	0xbb13cc74	-0.0022552283
101	0x3bb04a50	0.0053799525
102	0x3c37ecf4	0.011225928
103	0x3bf0959c	0.0073420536
104	0x3c0b9163	0.00851855
105	0x3a87b2fb	0.0010353023
106	0x3c1759c9	0.009237715
107	0xbc508a5b	-0.012728299
108	0x3bb4eb40	0.005521208
109	0x3b6b6489	0.0035918078
110	0x3c3c1bfd	0.011481282
111	0x3bf02ca1	0.007329539
112	0x3c56b8e3	0.013105604
113	0x3be2d40c	0.0069222506
114	0x3b897266	0.0041945456
115	0xbb09e1e9	-0.0021039194
116	0x3c08b8dc	0.008344855
117	0xbb71633e	-0.0036832835
118	0x3bdd412e	0.006752155
119	0x3c3dd21e	0.01158574
120	0xb998d740	-0.00029152073
121	0xbb45157d	-0.0030072622
122	0x3c31dfbd	0.010856566
123	0x3bcfdfb5	0.0063438066
124	0xbc04fc69	-0.00811682
125	0x3c17e826	0.009271657
126	0x3b139579	0.0022519513
127	0xbc1c8d53	-0.009555179

convs.0.lin.weight f4 [128, 128]
0	0xbbfde20b	-0.0077478937
1	0x3d61c97c	0.05512379
2	0xbdeabd2d	-0.11461864
3	0x3d812e10	0.06307614
4	0x3e01266f	0.12612318
5	0xbc909854	-0.01765076
6	0xbdb17daf	-0.0866655
7	0x3d36a761	0.04459322
8	0x3df2ac41	0.11849261
9	0x3e0ff29c	0.14057392
10	0x3d981af7	0.07427018
11	0xbe02d337	-0.12775885
12	0xbdecad35	-0.11556474
13	0x3c797c2a	0.015227357
14	0x3afd402b	0.0019321492
15	0x3d6c06a5	0.057623524
16	0xbc8067ff	-0.01567459
17	0xbd4b1c75	-0.049587686
18	0xbd8a4924	-0.06752232
19	0xbd054ec7	-0.03254583
20	0xbe1af098	-0.15130842
21	0x3dcb4239	0.0992474
22	0xbe10d5fd	-0.1414413
23	0xbc91e637	-0.01780997
24	0xbdbafec5	-0.09130625
25	0xbca0ceb2	-0.01962981
26	0x3dc7c768	0.097548306
27	0x3e247368	0.16059649
28	0x3c779ad7	0.0151126
29	0xbd9d0ba3	-0.07668235
30	0xbe1c4de0	-0.15264082
31	0xbdaa8952	-0.08326973
32	0xbdc5e320	-0.09662461
33	0x3dbf5412	0.09342207
34	0x3ddb5e23	0.107113145
35	0xbd7066c4	-0.058691755
36	0x3de798a8	0.11308414
37	0xbde2adbe	-0.11068295
38	0xbd169a34	-0.036768153
39	0xbd20cb9a	-0.03925667
40	0xbce9259a	-0.028460313
41	0x3d5203b1	0.05127305
42	0x3dd1470c	0.10218629
43	0xbe10b4c3	-0.14131455
44	0x3db3d242	0.08780338
45	0xbbc5a112	-0.006031164
46	0x3d9ab261	0.07553554
47	0xbd26cb96	-0.0407215
48	0xbd97e169	-0.074160405
49	0x3e14d178	0.14533031
50	0xbdf63c16	-0.12023179
51	0xbdc38aa5	-0.09547929
52	0x3e08d0cf	0.13360904
53	0xbe103d7f	-0.14085959
54	0x3d45363f	0.048147436
55	0xbe0b7086	-0.13617143
56	0x3c89c6dd	0.016818458
57	0x3d871e4d	0.06597576
58	0xbdda8beb	-0.106712185
59	0xbdec5a7d	-0.11540697
60	0xbc659c68	-0.014014341
61	0x3dcd24fe	0.10016821
62	0xbd5b01ca	-0.053468503
63	0xbe04def6	-0.12975678
64	0x3cd58b7b	0.026067486
65	0xbc8ce4db	-0.01719897
66	0x3d9584f4	0.073007494
67	0x3de74b93	0.112937115
68	0xbdee1717	-0.11625498
69	0x3e16f285	0.14740951
70	0x3da110c1	0.07864524
71	0xbdefb7ae	-0.11704956
72	0xbd8a2bc2	-0.067466274
73	0x3dbb1abb	0.09135958
74	0xbd3624b1	-0.044468585
75	0x3c9dc093	0.019256866
76	0xbc9f636f	-0.019456593
77	0x3da05345	0.078283824
78	0x3e0abeb4	0.1354931
79	0xbc5ec298	-0.013596199
80	0xbccfc17d	-0.025360817
81	0xbcaf0bf8	-0.021368012
82	0xbdfef792	-0.12449564
83	0xbbc941f9	-0.0061418978
84	0xbce25f7b	-0.02763342
85	0xbe0b041c	-0.13575786
86	0x3d6b1af4	0.05739875
87	0xbc0fab67	-0.008768893
88	0xbdc17f1c	-0.09448072
89	0x3df5aa2f	0.119953506
90	0x3e0dea63	0.13858943
91	0xbd7eb4e0	-0.062184215
92	0xbd99bab3	-0.07506313
93	0xbb85cd35	-0.0040833005
94	0xbc0462c5	-0.008080189
95	0xbd148955	-0.036263783
96	0x3a38398f	0.000702762
97	0x3e1307be	0.14358422
98	0xbd4b7f7b	-0.04968212
99	0x3e20726a	0.15668646
100	0xbe028d06	-0.12749109
101	0x3bc120e2	0.0058938125
102	0x3b5632f8	0.0032684188
103	0x3e16e6a1	0.14736415
104	0xbd7d17f7	-0.061790433
105	0x3de337b3	0.11094608
106	0x3e21c39c	0.15797275
107	0xbc93575a	-0.017985988
108	0x3e004fa1	0.12530376
109	0xbdf66ba2	-0.12032248
110	0xbe0df85b	-0.13864271
111	0x3d919ff4	0.07110587
112	0xbe164f1d	-0.14678617
113	0xbdf11e77	-0.11773389
114	0x3e07b977	0.13254343
115	0x3da63e66	0.0811737
116	0x3dbe5020	0.092926264
117	0xbd0fac79	-0.035076592
118	0x3941b1d0	0.00018472155
119	0x3d275d2e	0.040860347
120	0xbd4af2c7	-0.049547937
121	0xbddda2d8	-0.108220756
122	0xbd02e42b	-0.03195588
123	0x3df9673a	0.12177892
124	0xbd881dee	-0.06646334
125	0xbcf91b57	-0.030408544
126	0xbe1078e5	-0.14108618
127	0x3b71793b	0.003684594
128	0xbe0d7819	-0.13815345
129	0xbd3b753a	-0.045766093
130	0x3dfb06ce	0.12257157
131	0xbbcef860	-0.0063162297
132	0x3d52bf40	0.05145192
133	0xbe008580	-0.12550926
134	0xbe162197	-0.14661251
135	0x3d0a7e00	0.03381157
136	0xbdc978ef	-0.098375194
137	0xbd4a642b	-0.049411934
138	0xbe168c17	-0.14701878
139	0x3da1f9b4	0.07908955
140	0xbd902eee	-0.07040201
141	0xbd1ddda7	-0.038541462
142	0x3bdb57f0	0.0066938326
143	0x3da11303	0.07864954
144	0x3d308bf0	0.043102205
145	0xbd1be15f	-0.038056727
146	0x3e06f6cc	0.13180083
147	0x3c7d4963	0.015459391
148	0xbd92ab87	-0.071616225
149	0x3e105c2f	0.14097665
150	0xbc5e189e	-0.013555674
151	0x3c9bdd26	0.01902635
152	0xbcef46f6	-0.029208641
153	0xbdb64a7f	-0.08900928
154	0x3e0c03bc	0.136733
155	0xbe1e2cfc	-0.15446848
156	0xbdce0f31	-0.10061491
157	0x3d334491	0.043766562
158	0x3d9584e0	0.073007345
159	0xbd1d78e6	-0.038445376
160	0x3dcdafa5	0.10043267
161	0x3e0acf78	0.13555706
162	0x3d12a7f1	0.035804693
163	0xbcfe7122	-0.031059805
164	0xbdd67aec	-0.10472664
165	0xbdcde877	-0.10054105
166	0xbe1813f5	-0.14851363
167	0x3d9044f4	0.07044402
168	0x3cb8fac1	0.022580506
169	0xbd1cbef1	-0.038268033
170	0x3dc3f0e9	0.09567434
171	0x3d713738	0.05889055
172	0x3e08638d	0.13319226
173	0xbd926ee8	-0.0715006
174	0xbd180586	-0.037114643
175	0xbc17a700	-0.0092561245
176	0x3dc0fcfe	0.094232544
177	0xbdf11b6b	-0.11772808
178	0x3de584d8	0.112069786
179	0x3dfbe4c2	0.122994915
180	0xbde83257	-0.113377266
181	0x3cd2ffad	0.025756681
182	0xbdf29e52	-0.118466035
183	0x3d800a9f	0.06252026
184	0xbc01f394	-0.007931609
185	0x3e036bc7	0.12834083
186	0xbd139d36	-0.0360386
187	0x3dd9f89b	0.10643121
188	0xbca5f085	-0.02025629
189	0x3dd0a5e1	0.10187889
190	0xbda9407c	-0.082642525
191	0xba893667	-0.0010468484
192	0x3e064657	0.1311277
193	0xbe16e470	-0.1473558
194	0x3d44af5b	0.048018795
195	0x3da9a90d	0.08284197
196	0xbe00af91	-0.12566973
197	0xbd1b6310	-0.03793627
198	0xbe0ea5da	-0.13930455
199	0xbde8cba8	-0.11366969
200	0x3c7e8216	0.015533945
201	0xbdee76e2	-0.11643769
202	0xbd9fb05d	-0.077973105
203	0xbdd3cbaa	-0.1034158
204	0x3cd606a5	0.026126215
205	0x3d85e848	0.06538445
206	0xbcebb73e	-0.0287739
207	0x3e0865b2	0.13320044
208	0xbdb8b41c	-0.09018728
209	0xbe16e429	-0.14735474
210	0x3dc10767	0.0942524
211	0x3ccf4e58	0.025305912
212	0x3d3c8b43	0.046031248
213	0xbe14b5d0	-0.14522481
214	0x3d6e386d	0.05815928
215	0x3d19c3e3	0.037540328
216	0x3dad2803	0.08454897
217	0xbb80bb9a	-0.003928614
218	0xbc849268	-0.016183093
219	0xbd3c57eb	-0.045982283
220	0xbdcce451	-0.100044854
221	0xbdb7ecfa	-0.089807466
222	0x3c89f5c0	0.016840816
223	0xbd810fc8	-0.06301838
224	0x3dc9ef51	0.09860099
225	0x3d176aa4	0.036966935
226	0x3d56751a	0.05235777
227	0x3c59fb45	0.013304536
228	0xbd9675ea	-0.07346709
229	0xbde7bab5	-0.113149084
230	0xbdfa8214	-0.12231842
231	0x3d5ed656	0.054403625
232	0x3e027290	0.12739015
233	0x3d6ecdbc	0.058301672
234	0xbbea3810	-0.0071477965
235	0xbded2955	-0.11580149
236	0xbde8a6bb	-0.11359926
237	0x3b27c578	0.0025599878
238	0x3c9cf66f	0.019160477
239	0x3d9b6cf0	0.075891376
240	0x3dede05a	0.11615057
241	0x3ccc5b53	0.02494589
242	0xbd2d6931	-0.042336646
243	0x3cf706b0	0.030154556
244	0xbdf0dfea	-0.11761458
245	0x3de742eb	0.112920605
246	0x3b2c3a31	0.0026279802
247	0x3dd078f3	0.10179319
248	0xbddb5fe4	-0.10711649
249	0xbe107870	-0.14108443
250	0x3d5a5a77	0.05330893
251	0xbdb71c71	-0.08940972
252	0x3d8d036e	0.0688542
253	0x3d92a4eb	0.07160362
254	0xbda03cfa	-0.0782413
255	0x3dedde92	0.116147175

convs.1.bias f4 [128]
0	0x3b4ba758	0.0031075086
1	0x3b4e26e0	0.0031456277
2	0xba13ac2a	-0.00056332594
3	0xbc920c27	-0.01782806
4	0x3b689f47	0.0035495327
5	0xbc8d64cd	-0.01725998
6	0xbc1762d6	-0.009239873
7	0x3c3d7156	0.011562666
8	0x3bfb626b	0.0076716444
9	0x3c53b487	0.012921459
10	0xbbf92eb7	-0.007604446
11	0xbca8605f	-0.020553766
12	0xbabcfa19	-0.0014417797
13	0xbc40924a	-0.011753628
14	0x3b445967	0.0029960515
15	0x3ba01de8	0.0048863776
16	0x3c26fa12	0.010191457
17	0x3bf9bbd6	0.0076212687
18	0x3c5e226b	0.013558011
19	0xbb31b11e	-0.0027113627
20	0x3ae13c69	0.0017184141
21	0x3bf3ee1e	0.0074441573
22	0xba359e6d	-0.00069282093
23	0xbc551159	-0.013004624
24	0x3c28f039	0.01031118
25	0x3b45d45b	0.0030186388
26	0xbbe3c081	-0.0069504385
27	0x3c4977d8	0.012296639
28	0xbb0816e0	-0.0020765588
29	0x3c5a47ce	0.013322784
30	0x3bdec586	0.006798449
31	0x3be89350	0.007097639
32	0xbca76f0f	-0.020438699
33	0x3c4bf824	0.012449298
34	0x3c2e08e7	0.01062224
35	0x3c617e91	0.013763086
36	0xbbcb2fdc	-0.0062007736
37	0x3c0d764b	0.00863416
38	0x3c5e2b2e	0.0135600995
39	0x3bf1db32	0.0073808664
40	0x3903cfe0	0.00012570573
41	0xbcab2980	-0.020893812
42	0xbc9986c8	-0.018741027
43	0xbc48da1c	-0.012259033
44	0xbc6195d7	-0.013768635
45	0x3c4c45d4	0.01246782
46	0x3c1592fa	0.00912928
47	0x3c5522a4	0.013008747
48	0xbca2ce59	-0.019873785
49	0x3bb9b579	0.005667385
50	0x3c300071	0.010742293
51	0x3c1b7c87	0.009490139
52	0x3bec0f50	0.007203974
53	0x3c37d5f0	0.01122044
54	0x3c41ae52	0.011821346
55	0x3c1115a5	0.008855258
56	0x3bfb2a69	0.007664968
57	0x3ba34fae	0.004983864
58	0xbbccf1e3	-0.006254421
59	0x3c59cf83	0.013294104
60	0x3c00c91a	0.007860446
61	0x3bdf50f5	0.0068150708
62	0xbc87fde4	-0.016600557
63	0x3c27900e	0.010227216
64	0xbb98122f	-0.0046408395
65	0xbc9ed611	-0.019389184
66	0x3b535e98	0.0032252427
67	0x3c5f0d69	0.013614037
68	0xbc582823	-0.013193163
69	0xbc80f037	-0.015739543
70	0xbb969a60	-0.0045960397
71	0x3c6f2e3f	0.014598428
72	0x3c37ce8f	0.011218681
73	0x3c36a12a	0.011146823
74	0x3c49c67f	0.012315392
75	0x3bd126f6	0.0063828183
76	0x3c6f4090	0.014602795
77	0x3c2076c6	0.009793943
78	0x3c476660	0.012170404
79	0x3b4a7078	0.003088979
80	0x3c51e0e1	0.012809963
81	0xba24ecc9	-0.0006291387
82	0x3c3ca1c7	0.01151318
83	0x3b1168ea	0.0022187778
84	0xbc5dafb2	-0.013530659
85	0xbb4807a4	-0.0030522132
86	0xbca1197a	-0.019665468
87	0x3c4af7db	0.012388195
88	0x3b91b624	0.0044467617
89	0x3c38db2d	0.011282724
90	0x3c2f9f25	0.010719095
91	0xbbc3240a	-0.005955224
92	0x3b708af3	0.0036703914
93	0xbc0d1a73	-0.008612263
94	0x3c076485	0.008263712
95	0x3c66b747	0.014081783
96	0x3c190684	0.009339932
97	0x3c0c7962	0.008573862
98	0xbb19ef72	-0.0023488668
99	0xbc2f1c4d	-0.0106879
100	0x3c070709	0.008241423
101	0x3c00cafc	0.007860895
102	0x3bb1993f	0.0054198797
103	0xbc955485	-0.018228779
104	0x3bc4f027	0.0060100737
105	0x3c4f298e	0.012644185
106	0x3bb840a4	0.00562294
107	0xbbdf58b1	-0.0068159928
108	0x3b31abd8	0.0027110483
109	0x3c33fdd7	0.010985813
110	0x3c786e91	0.01516308
111	0x3c42d7c0	0.011892259
112	0x3bb5ac02	0.0055441866
113	0x3bf283da	0.007400972
114	0x3c5d4e43	0.013507429
115	0x3c4c766e	0.012479408
116	0x3c13ea5b	0.009028043
117	0x3c544fe6	0.012958502
118	0xbca3f5f6	-0.020014744
119	0x3c76f217	0.015072367
120	0x3bccdd79	0.0062519875
121	0x3c56eff3	0.013118732
122	0x3c0dac00	0.008646965
123	0x3c4c4389	0.0124672735
124	0x3c54b65e	0.012982933
125	0x3ae49159	0.0017438337
126	0x3c1ac702	0.009446861
127	0x3c5baeac	0.013408344

convs.1.lin.weight f4 [128, 128]
0	0xbde4f30e	-0.111791715
1	0xbce8600c	-0.028366111
2	0x3da812aa	0.08206685
3	0x3d1dd435	0.038532455
4	0x3deac717	0.114637546
5	0xbe04f6ee	-0.12984821
6	0x3cd28b14	0.025701083
7	0xbd3ca8ec	-0.046059534
8	0xbdfdbca9	-0.123895
9	0xbdb84370	-0.08997238
10	0x3e1087f8	0.14114368
11	0xbdd20ed7	-0.10256737
12	0x3dc81da4	0.097712785
13	0xbdbfa2ca	-0.093572214
14	0xbc96f76e	-0.01842853
15	0x3e134393	0.14381246
16	0xbdb9635d	-0.09052155
17	0x3cbc4048	0.02297987
18	0x3d493eb6	0.04913207
19	0xbe1a7150	-0.15082288
20	0x3db3ccf1	0.08779324
21	0x3e195945	0.1497546
22	0x3df517d4	0.119674355
23	0xbc01c2e3	-0.00792
24	0x3e136db4	0.14397317
25	0x3d9ef2da	0.07761164
26	0x3e0778c3	0.1322966
27	0x3d73927d	0.059465874
28	0x3d24d086	0.040237926
29	0xbdedd99e	-0.11613773
30	0x3e0eb44f	0.1393597
31	0xbda669ce	-0.081256494
32	0xbe1ddf00	-0.15417099
33	0x3d829e43	0.06377842
34	0x3d75099f	0.05982363
35	0x3d7cd78b	0.061728995
36	0xbe06f9d7	-0.13181244
37	0x3d0487e5	0.03235616
38	0x3dda6c45	0.10665182
39	0xbe077ae0	-0.13230467
40	0xbd79cb43	-0.06098486
41	0xbe099d6a	-0.13438955
42	0x3cd55c89	0.0260451
43	0xbdad6cb6	-0.084680006
44	0x3cf8010f	0.030273942
45	0xbce396c9	-0.02778186
46	0xbdf1f193	-0.11813655
47	0xbc422285	-0.01184905
48	0xbd96bd46	-0.0736032
49	0x3cf08725	0.029361317
50	0xbdb2cb0d	-0.08730135
51	0xbd7a3023	-0.061081063
52	0xbe001190	-0.125067
53	0x3c5821d6	0.013191661
54	0x3df8d28e	0.12149535
55	0xbc086ad9	-0.008326256
56	0xbdb586f7	-0.08863633
57	0xbc9746c2	-0.018466357
58	0xbdcb4a89	-0.09926326
59	0xbd8ec222	-0.06970622
60	0xbcd65cb1	-0.026167246
61	0xbd383cec	-0.044979975
62	0xbd947be5	-0.072501935
63	0x3d5a7909	0.053338084
64	0xbd333c66	-0.043758772
65	0xbc121913	-0.008917111
66	0xbe003dca	-0.1252357
67	0xbde5b496	-0.11216085
68	0xbdcfbcbe	-0.101434216
69	0x3e200c62	0.15629724
70	0x3d445cb4	0.04793997
71	0x3deebc23	0.11656978
72	0xbdecaf36	-0.11556856
73	0x3db24d17	0.0870611
74	0xbdd1df88	-0.10247713
75	0x3e0c2ea3	0.13689665
76	0x3d917af0	0.071035266
77	0x3de77a1c	0.113025874
78	0x3df1cec4	0.118070155
79	0xbdf1b789	-0.11802585
80	0x3d121d29	0.03567234
81	0x3caaf3dd	0.020868236
82	0xbca03da8	-0.01956065
83	0xbdc8cf7a	-0.09805198
84	0xbdf87304	-0.121313125
85	0xbd850a39	-0.064960904
86	0xbd6ad178	-0.05732867
87	0xbdd2c17e	-0.10290812
88	0xbd826cae	-0.06368385
89	0x3d179b78	0.0370135
90	0xbdb8ac36	-0.09017222
91	0xbdd33ea2	-0.10314681
92	0xbdc3d7d4	-0.0956265
93	0x3e0011eb	0.12506835
94	0x3da99b49	0.082815714
95	0xbc19736b	-0.009365897
96	0xbcc32934	-0.023823358
97	0x3e2003b7	0.15626417
98	0x3c6c3f6c	0.014419418
99	0x3e0c663d	0.13710876
100	0x3dc9658a	0.0983382
101	0xbd55cc3e	-0.052196734
102	0xbe092100	-0.13391495
103	0x3d9501f9	0.07275767
104	0x3dfb20fa	0.12262149
105	0x3dda5fe3	0.1066282
106	0x3baa5280	0.005197823
107	0xbd7819fb	-0.060571652
108	0x3d1e54c5	0.03865506
109	0xbd118b60	-0.03553331
110	0x3ccf418b	0.025299808
111	0xbda2da60	-0.07951808
112	0xbd91ab11	-0.071127065
113	0x3d0afd90	0.033933222
114	0x3dd51787	0.10404878
115	0xbd8f4f67	-0.06997567
116	0xbd9f9fc8	-0.07794148
117	0x3d3fabe8	0.046794802
118	0x3d4a8faf	0.049453434
119	0x3c3e70e4	0.011623595
120	0x3dfa95bb	0.1223559
121	0x3df815d0	0.121135354
122	0x3d3bcf40	0.045851946
123	0xbdab6831	-0.08369482
124	0xbdba8dcb	-0.09109076
125	0xbe1c1adf	-0.15244626
126	0x3c8ed8b8	0.017437324
127	0xbc1b1538	-0.009465508
128	0xbd54f8c2	-0.051995046
129	0x3df627d6	0.12019317
130	0xbe0f06af	-0.13967393
131	0xbe1baa5b	-0.15201704
132	0x3e224415	0.15846284
133	0xbda8faa4	-0.08250931
134	0x3de1b83d	0.11021469
135	0x3e07d655	0.13265355
136	0xbdd7fe7b	-0.10546585
137	0x3d4c98bc	0.049950346
138	0x3e179246	0.14801893
139	0x3c0dccf2	0.00865482
140	0x3de36b0c	0.11104402
141	0xbe1cc184	-0.15308195
142	0xbe0b8809	-0.13626112
143	0xbdcf5e4f	-0.1012541
144	0x3ccecfe4	0.025245614
145	0xbcff76ce	-0.03118458
146	0x3d04cd13	0.032422137
147	0xbd5d4379	-0.054019425
148	0x3dc5f06b	0.09664997
149	0x3d3eed71	0.04661316
150	0x3dde6b16	0.10860269
151	0x3de33ef0	0.11095989
152	0xbda1cc02	-0.079002395
153	0x3dea878c	0.11451635
154	0xbd37fa53	-0.044916462
155	0xbdc8b0a6	-0.09799318
156	0xbceb3607	-0.028712286
157	0x3d9c3e85	0.07629112
158	0x3cf04f1a	0.029334594
159	0x3e0c7e4b	0.13720052
160	0xbd800854	-0.062515885
161	0x3e0cc142	0.13745597
162	0x3cc8d567	0.02451582
163	0x3db8236b	0.089911304
164	0xbdcd6673	-0.10029306
165	0x3ddf5a56	0.10905902
166	0x3d9bf24e	0.07614575
167	0x3d9a3925	0.07530431
168	0x3ddf3bd1	0.10900081
169	0xbcfc6f3a	-0.030814756
170	0x3d5cd0e9	0.05391017
171	0x3dc1d2c9	0.09464032
172	0x3c3917b5	0.011297156
173	0xbdfdf8dc	-0.12400982
174	0xbd874b83	-0.066061996
175	0xbd2b812a	-0.041871227
176	0x3dbca827	0.0921176
177	0x3e1870ee	0.1488683
178	0x3dc2e631	0.09516562
179	0xbcb9bf0f	-0.022674112
180	0xbd434578	-0.047673672
181	0xbdf81106	-0.12112622
182	0x3cebb9ca	0.028775115
183	0xbdfbbdfb	-0.12292095
184	0xbd9fcc06	-0.07802586
185	0xbe1493d5	-0.14509518
186	0xbd4aad41	-0.049481634
187	0x3cff03ef	0.031129805
188	0x3d032180	0.03201437
189	0x3be6f3a8	0.007048089
190	0xbc85d956	-0.016338985
191	0xbdd319dd	-0.103076674
192	0x3dc80e71	0.097683795
193	0x3e0a0419	0.13478126
194	0x3e01d7cf	0.1267998
195	0x3e10a578	0.14125621
196	0xbce0ad61	-0.027426424
197	0xbd8939c3	-0.0670047
198	0x3dadd64f	0.08488142
199	0x3dac0507	0.083993964
200	0x3d98dd1c	0.07464048
201	0xbde692c9	-0.11258466
202	0x3c9fb595	0.019495765
203	0xbda33af2	-0.07970227
204	0xbd602573	-0.054723214
205	0xbdab7462	-0.08371808
206	0xbdb0154f	-0.08597814
207	0xbd3f51bf	-0.04670882
208	0xbd8f99b2	-0.07011737
209	0x3bcbfedc	0.00622545
210	0x3e0baf4e	0.13641092
211	0xbc05512d	-0.00813703
212	0xbd0ba8f5	-0.034096677
213	0x3e08e486	0.13368425
214	0x3d032e30	0.03202647
215	0xbb322226	-0.0027180999
216	0x3cc0b6aa	0.023524601
217	0x3e0b9ee7	0.13634835
218	0x3dd662b3	0.10468044
219	0xbdf16707	-0.11787229
220	0x3e094d93	0.13408498
221	0xbdd95017	-0.10610979
222	0xbd723fa9	-0.059142742
223	0x3da5865c	0.08082268
224	0x3e2860c2	0.1644316
225	0x3d985f39	0.07440037
226	0x3da89c53	0.082329415
227	0x3dca320c	0.09872827
228	0x3dcfea37	0.10152095
229	0xbd56264f	-0.052282628
230	0x3dd84642	0.105602756
231	0xbdfdbd73	-0.1238965
232	0xbd7a2cf7	-0.061078038
233	0x3deb940b	0.11502846
234	0x3e0e88bc	0.13919348
235	0xbdc5e74d	-0.09663258
236	0x3df97daf	0.12182175
237	0x3dacc27c	0.084355325
238	0x3dfe193f	0.12407159
239	0xbd93a083	-0.072083496
240	0x3df7c043	0.12097218
241	0xbce547cd	-0.027988339
242	0x3cd02c42	0.025411729
243	0xbdaba3a3	-0.083808206
244	0x3e100625	0.14064844
245	0xbd3a5c8e	-0.045498423
246	0xbdf9b139	-0.12192006
247	0xbcac10b7	-0.021004064
248	0xbc7eed00	-0.015559435
249	0x3d65b90f	0.05608469
250	0xbcc078ce	-0.023495104
251	0x3dcc5e94	0.09978977
252	0xbda670d7	-0.08126991
253	0x3b3ab3a6	0.0028488426
254	0xbda471e7	-0.08029538
255	0xbc68e213	-0.014214057

convs.2.bias f4 [128]
0	0x3c72d95f	0.014822333
1	0x3c507abb	0.012724574
2	0xbc9f518e	-0.019448068
3	0xbc4276bc	-0.011869129
4	0xbc9abe7e	-0.018889662
5	0x3c565395	0.013081451
6	0x3c7a59ec	0.015280228
7	0x3b12e0ad	0.002241175
8	0xb9d61ab9	-0.0004083717
9	0x3c28823b	0.010284956
10	0x3c68f872	0.01421939
11	0x3c550aa1	0.013003022
12	0x3bee60f2	0.0072747404
13	0xbcb9c12a	-0.022675116
14	0xbc0d91cd	-0.008640719
15	0x3c75e0b1	0.015007184
16	0x3b106f7b	0.0022039104
17	0x3b4bf5f3	0.003112194
18	0x3c7f71cb	0.015591095
19	0xbc390a68	-0.011293985
20	0x3c57e651	0.01317747
21	0xbc67ede0	-0.014155835
22	0xbbaa8b73	-0.005204612
23	0x3c4c2d48	0.012461968
24	0x3c86de51	0.01646343
25	0x3c2dee40	0.010615885
26	0xbc5e0ffc	-0.013553616
27	0xbca947cb	-0.020664116
28	0x3c3cad18	0.011515878
29	0x3c54e1ad	0.012993258
30	0xbc0d924e	-0.008640839
31	0xbb43c039	-0.0029869212
32	0x3c759017	0.014987967
33	0x3c0cb320	0.008587629
34	0x3c5c4d28	0.01344613
35	0x3b3ad846	0.0028510257
36	0xbc017a2b	-0.007902662
37	0x3b313535	0.002703977
38	0x3bb0138f	0.0053734253
39	0xbc2bae98	-0.010478638
40	0x3c60a6bf	0.01371163
41	0x3c7911c2	0.015201988
42	0xbca1fa23	-0.019772595
43	0x3c8264d8	0.015917227
44	0x3c82f016	0.015983623
45	0xbc91bcd3	-0.017790234
46	0x3c63dd74	0.013907779
47	0x3c5ca7d2	0.013467746
48	0xbc90b533	-0.017664528
49	0x3c778f36	0.015109828
50	0x3c84a953	0.016194021
51	0x3c721493	0.014775413
52	0x3c7a236a	0.015267232
53	0xbba8470f	-0.005135424
54	0xbc3679e1	-0.011137457
55	0xbc84dc01	-0.016218187
56	0xb925c0be	-0.00015807428
57	0xbca22938	-0.019795045
58	0x3bf8335f	0.0075744833
59	0x3c11c80e	0.008897794
60	0xbc0b53d0	-0.008503869
61	0x3c80fda0	0.015745938
62	0xbba6d35d	-0.0050911144
63	0x3c262ec8	0.010142989
64	0x3c3179c1	0.010832251
65	0x3c8b85ca	0.017031569
66	0x3b9e7cbe	0.004836648
67	0xbb9c87b4	-0.0047769193
68	0x3c1e8241	0.00967461
69	0x3c550be5	0.013003324
70	0x3c8136fb	0.015773287
71	0x3c6b0d6c	0.014346462
72	0xbbdb407c	-0.0066910367
73	0x3c5ddcfa	0.013541454
74	0x3c80f6f9	0.015742766
75	0x3c80e04d	0.015731955
76	0xbc830797	-0.01599483
77	0x3c7a61ac	0.015282076
78	0x3c4c775c	0.012479629
79	0x3c19647c	0.009362336
80	0x3c1baf52	0.009502249
81	0xbc806596	-0.01567344
82	0x3b1c7f00	0.002387941
83	0x3c7f1c3a	0.015570695
84	0xbb91dc69	-0.0044513238
85	0x3c94ffb6	0.018188339
86	0x3c52c07c	0.012863275
87	0x3c846744	0.016162522
88	0xbc42115d	-0.01184496
89	0x3c7115ba	0.014714653
90	0x3c4d536d	0.012532097
91	0x3c7df056	0.015499195
92	0x3c63a6b5	0.0138947265
93	0x3c5cba3f	0.013472139
94	0xbc8c3f25	-0.017119953
95	0x3c5d6de2	0.013514968
96	0x3c38c301	0.011276961
97	0xbc962501	-0.018328192
98	0x3c562d3c	0.013072308
99	0x3c0ff486	0.008786326
100	0x3c6c7316	0.0144317355
101	0x3c568111	0.013092295
102	0x3c807849	0.015682356
103	0x3c8849f6	0.01663683
104	0x3c60290f	0.013681664
105	0x3c2890fe	0.010288475
106	0x3c85388e	0.016262319
107	0xbc932eb2	-0.017966602
108	0x3c64f59c	0.013974573
109	0xbc97adf7	-0.01851557
110	0x3adb4cfd	0.0016731318
111	0xbc9565b9	-0.018236982
112	0x3bf27b0b	0.007399922
113	0x3c34d60e	0.011037363
114	0x3c0b833f	0.008515178
115	0x3c4c2c79	0.012461775
116	0xbc90f19c	-0.017693333
117	0x3c87f81c	0.0165978
118	0x3c8b7f22	0.017028395
119	0x3c5a7404	0.013333324
120	0x3ba621a5	0.0050699287
121	0x3c0ae9fe	0.00847864
122	0x3b94661b	0.0045287735
123	0xbba603f2	-0.0050663883
124	0x3ab49e8a	0.0013780158
125	0x3bc2d7b0	0.005946122
126	0x3c6eaa9a	0.014567042
127	0xbc8df569	-0.017328935

convs.2.lin.weight f4 [128, 128]
0	0xbcf550ea	-0.02994581
1	0xbd36360b	-0.044485133
2	0x3e0f15b2	0.1397312
3	0xbb71d7bd	-0.0036902272
4	0xbcfa6399	-0.03056507
5	0xbd2fbe1f	-0.042905923
6	0xbd256b3a	-0.040385462
7	0xbb52940c	-0.00321317
8	0xbde107d6	-0.10987823
9	0xbcb50f6d	-0.022102082
10	0x3d4edaaf	0.05050152
11	0xbd936d62	-0.071985975
12	0x3d1109b2	0.035409637
13	0x3c704612	0.014665144
14	0x3d6f4d55	0.05842336
15	0x3e1b8a9d	0.15189596
16	0xbd369352	-0.04457409
17	0x3dc7770c	0.09739503
18	0xbdd95cf8	-0.106134355
19	0x3dbef4e9	0.09324057
20	0xbd04139c	-0.032245263
21	0xbdbb77bd	-0.09153698
22	0x3c078fc4	0.0082740225
23	0xbced213b	-0.02894651
24	0xbd9d588d	-0.07682905
25	0xbb56753f	-0.0032723693
26	0xbda8104d	-0.08206234
27	0x3d3402e7	0.04394808
28	0x3d93398f	0.07188713
29	0x3c9de52a	0.019274313
30	0x3df56cc3	0.11983635
31	0xbd90b725	-0.07066182
32	0xbd024738	-0.0318062
33	0xbc96ace9	-0.018392997
34	0x3defbbb4	0.117057234
35	0xbd09e823	-0.03366865
36	0x3c4ff7b2	0.0126933325
37	0xbb8bd0ca	-0.004266833
38	0x3ca74927	0.020420624
39	0x3e232f4b	0.1593601
40	0xbe0b489b	-0.13601916
41	0xbda4ff7c	-0.08056542
42	0xbd8280b6	-0.06372206
43	0x3d009ba2	0.031398423
44	0xbd8224aa	-0.06354649
45	0x3d33f72a	0.043936886
46	0x3da38fc4	0.079864055
47	0xbd82de89	-0.063901015
48	0xbcdc7c98	-0.02691488
49	0x3d90660a	0.070507124
50	0xbda65913	-0.08122458
51	0xbe01aedb	-0.12664358
52	0xbd2343fb	-0.039859753
53	0x3b982d0e	0.004644043
54	0xbd814edc	-0.06313869
55	0x3e08158f	0.13289474
56	0x3e184078	0.14868343
57	0xbda7eb63	-0.08199193
58	0x3e289b17	0.16465412
59	0x3ddbfc85	0.10741524
60	0x3db7f667	0.089825444
61	0xbcbe5e20	-0.023238242
62	0x3becfb4e	0.0072321063
63	0xbd8b3d09	-0.06798751
64	0x3d1c60ca	0.038178243
65	0x3db7b941	0.08970881
66	0xbd59162c	-0.05299966
67	0x3e0fb951	0.14035536
68	0xbda2fb59	-0.07958097
69	0x3d038f6c	0.0321192
70	0xbd7d82a1	-0.061892156
71	0xbdab0453	-0.08350434
72	0xbd9ef546	-0.07761626
73	0xbcb4a340	-0.0220505
74	0x3d960455	0.07325045
75	0x3db1554b	0.086588465
76	0x3c92cd40	0.017920136
77	0xbd0a05c5	-0.03369691
78	0x3dcddcee	0.100519046
79	0x3d286076	0.041107617
80	0x3e0a8348	0.13526642
81	0xbd8b04ec	-0.06788048
82	0x3e20f66f	0.15719007
83	0x3de79db2	0.11309375
84	0xbda29cf3	-0.07940092
85	0xbc8dabf7	-0.017293913
86	0xbcfe7a0f	-0.031064061
87	0x3ba2d47b	0.0049691773
88	0x3e208a3d	0.15677734
89	0xbcbcbadb	-0.023038318
90	0xbd8c2018	-0.06842059
91	0x3c1e76ab	0.009671847
92	0xbc3eca09	-0.011644849
93	0x3cb9a5d8	0.022662088
94	0xbbfc164e	-0.0076930886
95	0x3e19ed1b	0.15031855
96	0x3dd2eae9	0.10298712
97	0xbda70216	-0.08154695
98	0xbd85d39f	-0.06534504
99	0xbdaabc6d	-0.083367206
100	0x3e19360e	0.14962026
101	0x3e24c61f	0.16091202
102	0x3d21a875	0.039467294
103	0x3d8d20a6	0.06890993
104	0x3d7b782d	0.061393905
105	0xbdb9c4fa	-0.090707734
106	0xbdd2fb93	-0.1030189
107	0x3ce39260	0.027779758
108	0xbddbcc1b	-0.107322894
109	0xbccb47f6	-0.024814587
110	0x3e151e6c	0.14562386
111	0xbddd042c	-0.10791811
112	0xbd419ecd	-0.047270585
113	0x3c6fbed9	0.014632904
114	0x3e17486a	0.14773718
115	0xbca33243	-0.019921428
116	0x3db8e901	0.09028817
117	0xbda205fa	-0.07911296
118	0xbe0567cd	-0.13027878
119	0xbcca5b16	-0.024701636
120	0x3d5b8782	0.053596027
121	0xbcac85ae	-0.021059837
122	0xbc26ac8e	-0.010172976
123	0x3dcf6057	0.10125797
124	0x3cf1a825	0.029499123
125	0xbbc0d217	-0.0058844197
126	0x3dd7d418	0.105385005
127	0xbdb03b1b	-0.086050235
128	0xbb9a54e6	-0.0047098277
129	0x3ddefb0f	0.108877294
130	0x3e055235	0.1301964
131	0x3df950a6	0.121735856
132	0xbd013d9f	-0.031552907
133	0x3db27bc8	0.08715016
134	0x3b3d4296	0.00288788
135	0x3de55a8e	0.111989126
136	0xbdce3122	-0.10067965
137	0x3d74ab0b	0.05973343
138	0xbdaf670f	-0.08564579
139	0xbcd2a0b4	-0.025711395
140	0x3df003e8	0.11719495
141	0x3e253295	0.16132577
142	0x3e100e6e	0.14068004
143	0x39f29662	0.0004626988
144	0x3d852bc2	0.06502487
145	0xbbd5df3d	-0.006526856
146	0xbd4f1c22	-0.05056394
147	0xbe063c50	-0.13108945
148	0x3e04471f	0.12917756
149	0x3c4bbcad	0.0124351205
150	0x3cf32598	0.029681012
151	0xbd8ed584	-0.069743186
152	0x3e1555d8	0.14583528
153	0xbb8f742f	-0.004377864
154	0x3cf55e40	0.029952168
155	0x3cbe3ff7	0.02322386
156	0x3e1956a5	0.14974459
157	0xbe0fd6e0	-0.14046812
158	0x3d2f6ec8	0.04283026
159	0x3e21e781	0.15810968
160	0x3dd63f15	0.10461251
161	0x3d81116e	0.063021526
162	0xbe029b42	-0.12754539
163	0xbd7c09c6	-0.06153276
164	0x3d8a714a	0.067598894
165	0x3c0c1ec1	0.008552254
166	0x3d8aae46	0.06771521
167	0xbda60930	-0.08107221
168	0xbb72d124	-0.0037050927
169	0xbd097959	-0.03356299
170	0xbda103ab	-0.07862028
171	0xbdd4f286	-0.1039782
172	0xbc0cb293	-0.008587497
173	0xbd09ed2e	-0.033673458
174	0x3deaf389	0.11472232
175	0xbd0e366f	-0.03471988
176	0xbdfdfedc	-0.12402126
177	0x3b316501	0.002706826
178	0xba85134f	-0.0010152849
179	0x3dfadea5	0.12249497
180	0xbc4ea3bf	-0.012612282
181	0x3d7a9fb1	0.06118745
182	0x3e0dcf80	0.13848686
183	0x3ce61ed1	0.028090866
184	0x3d054a2e	0.032541446
185	0xbdac6633	-0.084179305
186	0xbde39011	-0.11111463
187	0xbd169261	-0.03676069
188	0x3e0d4044	0.13794047
189	0x3d7b4d61	0.06135309
190	0x3d824083	0.06359961
191	0xbdf01c30	-0.11724126
192	0xbdddcc6f	-0.10830008
193	0xbdf8bdb4	-0.12145558
194	0x3a796811	0.00095141033
195	0x3ac37fac	0.0014915369
196	0xbe15e288	-0.14637196
197	0xbd95f9e5	-0.07323054
198	0xbdaa2183	-0.08307173
199	0x3dec3028	0.115326226
200	0xbd9a3b2d	-0.07530818
201	0xbbb2fa90	-0.0054619983
202	0x3c931ba3	0.017957514
203	0x3dfa5db5	0.122249044
204	0x3dda875f	0.10670351
205	0xbcf56c5a	-0.029958893
206	0x3ca2c6fe	0.019870277
207	0xbd3967e4	-0.045265093
208	0x3d8c1e55	0.06841723
209	0x3dad4339	0.08460087
210	0x3c63cf6f	0.0139044365
211	0xbdbf57b2	-0.093428984
212	0x3d8d51e6	0.069003865
213	0x3d9cadb9	0.076503225
214	0xbd84844e	-0.064705476
215	0x3d15afd5	0.03654464
216	0xbd39cc7e	-0.045361035
217	0xbda7307e	-0.08163546
218	0xbd028633	-0.031866264
219	0x3d9c269c	0.07624552
220	0x3de55698	0.11198157
221	0x3ceaf77a	0.02868246
222	0xbdd22ede	-0.102628455
223	0xbd2390a8	-0.039932877
224	0x3c2bec24	0.010493312
225	0x3d6a1613	0.057149958
226	0xbdf9d737	-0.12199252
227	0xbe0d0633	-0.13771896
228	0xbc61f8e0	-0.013792247
229	0x3e062dd2	0.13103417
230	0xbd5b054b	-0.053471845
231	0xbd1617d9	-0.036643837
232	0xbc56385f	-0.013074963
233	0xbe0fe541	-0.14052297
234	0x3c8206ec	0.015872441
235	0xbe1358b0	-0.143893
236	0x3d82ad57	0.06380718
237	0xbdc58e1d	-0.096462466
238	0x3dd322de	0.10309385
239	0x3e225092	0.15851048
240	0xbe0837c8	-0.13302529
241	0x3d23c6e3	0.039984595
242	0x3ddcf01e	0.10787986
243	0x3e0f6599	0.140036
244	0xbdf533ce	-0.119727716
245	0xbdfeaa6a	-0.12434848
246	0xbd98ca48	-0.07460457
247	0x3cd1bc5f	0.025602518
248	0xbdfd9868	-0.12382585
249	0x3dd6e0e9	0.10492117
250	0x3daaf4e9	0.08347494
251	0xbe14b857	-0.14523445
252	0x3e1b3f0d	0.1516077
253	0x3e03e544	0.12880427
254	0x3c788ddc	0.015170541
255	0x3e038aa7	0.1284586

convs.3.bias f4 [128]
0	0x3c21c39d	0.009873298
1	0x3c66330d	0.014050257
2	0x3cad91ec	0.021187745
3	0x3c9ccfe8	0.019142106
4	0x3c87ee85	0.016593227
5	0x3cae8350	0.021302849
6	0x3c9344ed	0.017977202
7	0xbc41bbbc	-0.0118245445
8	0x3c977e64	0.018492885
9	0xbc62cc57	-0.013842664
10	0x3c07343c	0.0082522
11	0x3c9b08e5	0.01892514
12	0xbc229c75	-0.009924998
13	0x3c9fcbe6	0.019506406
14	0x3c8d5533	0.01725254
15	0x3c8ebdf1	0.017424555
16	0x3bbdc141	0.00579086
17	0x3b88bb57	0.0041727233
18	0xbb527f05	-0.0032119167
19	0x3c00593b	0.007833774
20	0x3b767868	0.0037608389
21	0x3c8eb8f6	0.01742218
22	0x3ca12786	0.019672167
23	0x3c9fd87f	0.019512413
24	0x3c83023d	0.015992278
25	0xbc0996f3	-0.0083978055
26	0x3bc591d0	0.006029345
27	0x3c719748	0.014745541
28	0x3c830329	0.015992718
29	0x3c84b5be	0.016199943
30	0xbab06433	-0.0013457596
31	0xbc027be2	-0.007964106
32	0xbc4c8b9e	-0.012484459
33	0x3bff5af1	0.0077928235
34	0xbb9ccdea	-0.004785289
35	0x3c9fca43	0.019505626
36	0x3cb2c8ce	0.021824267
37	0x3be9cd9b	0.007135106
38	0x3ca6fd65	0.0203845
39	0x3ca070e3	0.019585079
40	0x3c476a68	0.012171365
41	0x3c24f50c	0.010068189
42	0xbc0b7eca	-0.008514116
43	0x3acf949c	0.0015837136
44	0x3c99ab6e	0.018758502
45	0xbc3f92b5	-0.0116926925
46	0x3c998894	0.018741883
47	0x3c6a0dd4	0.014285523
48	0xbc2e6b63	-0.01064572
49	0x3ae90f0e	0.0017780976
50	0x3bb8b6cd	0.005637026
51	0x3c8ea310	0.017411739
52	0x3c9ab968	0.018887237
53	0x3c36c494	0.011155266
54	0xbc1d7c8a	-0.009612212
55	0x3b6c2875	0.0036034856
56	0xba5c9faa	-0.0008416126
57	0x3c9d7cdb	0.019224575
58	0x3c99a9d0	0.01875773
59	0x3bdf7133	0.0068189143
60	0x3c892374	0.016740538
61	0x3c9c3d53	0.01907221
62	0x3c86b634	0.016444303
63	0xbaed1245	-0.001808711
64	0x3c917b3f	0.017758964
65	0xbc35dfc0	-0.011100709
66	0xbc46ebe9	-0.012141206
67	0xbc0e3700	-0.008680105
68	0x3c8f812a	0.017517645
69	0xba8a5c1c	-0.0010556015
70	0xbc1dc83d	-0.00963026
71	0x3c2e6999	0.010645294
72	0x3ca28d49	0.01984276
73	0xbc4edfe4	-0.012626622
74	0x3c353fcc	0.011062574
75	0x3b9460ee	0.0045281565
76	0x3cac24f2	0.02101371
77	0xbba2a0a1	-0.004962996
78	0x3c9c8d49	0.019110339
79	0x3c8e30fb	0.01735734
80	0xbb33e44a	-0.0027449303
81	0x3c5a7c26	0.013335263
82	0x3c54bae4	0.012984011
83	0xbab65564	-0.0013910946
84	0x3b9c8a1f	0.0047772075
85	0x3c817c9b	0.015806487
86	0x3c604bc5	0.01368994
87	0xb95ec226	-0.00021243896
88	0x3ca1e2ad	0.019761408
89	0x3c9ba155	0.018997828
90	0xbbe6d079	-0.007043895
91	0xbb9b318e	-0.004736132
92	0x3c90b5bc	0.017664783
93	0x3c8f1e40	0.017470479
94	0xbc52ff61	-0.01287827
95	0x3ca1696d	0.019703591
96	0x3c99bd7c	0.018767111
97	0x3c9f2e24	0.019431181
98	0x3c5d3fb2	0.013503956
99	0x3c6f17ba	0.014593059
100	0x3ca0507b	0.019569626
101	0xbc87009c	-0.016479783
102	0x3bf4b105	0.0074673914
103	0xbba3a6e4	-0.00499426
104	0x3bf3544c	0.0074258205
105	0x3ab7fd1e	0.0014037227
106	0x3c489a98	0.012243889
107	0x3c8d729b	0.017266562
108	0x3c41d207	0.01182986
109	0x3c4e2d37	0.012584022
110	0x3c9b88d0	0.018986136
111	0xbc3f1348	-0.011662312
112	0x3c82db11	0.0159736
113	0xbc4714d7	-0.012150965
114	0x3c2b889a	0.01046958
115	0x3c9fcdc6	0.0195073
116	0x3c95d48e	0.01828983
117	0x3c37c9ed	0.011217576
118	0x3c7ce7b0	0.015436098
119	0xbbeb6fbb	-0.00718495
120	0x3c88d1a1	0.016701521
121	0x3c980fbf	0.018562196
122	0x3c8eee76	0.017447691
123	0xbbdba9f9	-0.006703612
124	0x3c76e893	0.015070098
125	0x3c7633de	0.015027015
126	0xbc002d91	-0.007823364
127	0x3c95ca5f	0.018284975

convs.3.lin.weight f4 [128, 128]
0	0x3e1d04f4	0.1533392
1	0xbc26f0c7	-0.010189242
2	0xbc01c6f9	-0.007920974
3	0xbd8cb311	-0.06870092
4	0xbd90c2c6	-0.070684
5	0xbd433e7b	-0.047667008
6	0xbdeb2c9e	-0.114831194
7	0xbd99ce14	-0.075100094
8	0x3d9625ef	0.07331454
9	0x3e08fcc6	0.13377675
10	0x398d51c4	0.00026954536
11	0xbdf56882	-0.11982824
12	0xbe12b18a	-0.14325538
13	0xbd6be7c2	-0.05759407
14	0x3da188f9	0.078874536
15	0xbe0d852e	-0.13820335
16	0x3d6ec1d6	0.058290325
17	0x3da9c2cd	0.082891084
18	0xbb5e4f6d	-0.0033921853
19	0x3dfe8e77	0.12429517
20	0x3e1912db	0.14948599
21	0x3e10dc14	0.14146453
22	0x3dc25c14	0.09490219
23	0x3c3a40cc	0.011367988
24	0xbd23870b	-0.03992371
25	0xbdda59ff	-0.10661697
26	0x3e1a6a79	0.15079679
27	0xbd65b9de	-0.05608546
28	0xbb8f02ac	-0.004364332
29	0xbdd2fcd6	-0.10302131
30	0xbdebeba0	-0.11519551
31	0xbce444ff	-0.027864931
32	0x3d70fe7b	0.05883644
33	0xbbd95821	-0.0066328202
34	0x3d956537	0.07294696
35	0x3be83a28	0.007087011
36	0x3deeefb0	0.116668105
37	0x3dea04c1	0.11426688
38	0x3dfd2125	0.123598374
39	0xbda1e618	-0.07905215
40	0x3e053ab1	0.1301067
41	0xbe1169d7	-0.14200531
42	0x3d3a7d68	0.045529753
43	0xbde346b6	-0.110974714
44	0xbd90bf60	-0.07067752
45	0xbd0782b5	-0.033083636
46	0x3e1717bf	0.14755152
47	0xbe056834	-0.13028032
48	0x3dbda733	0.09260406
49	0x3cfbfe41	0.030760886
50	0x3c2636c1	0.01014489
51	0x3de9e24e	0.11420117
52	0x3da74033	0.08166542
53	0xbc0d1d12	-0.008612888
54	0xbc95230f	-0.018205194
55	0x3e0b55b1	0.13606907
56	0xbda8c783	-0.08241179
57	0x3e1f7f21	0.1557584
58	0x3d9d0ee6	0.07668857
59	0xbd464340	-0.04840398
60	0x39d4cba7	0.00040587524
61	0xbdb4ccc7	-0.08828121
62	0x3d90b48f	0.07065689
63	0xbe0cb2ed	-0.1374013
64	0x3e1a211e	0.15051696
65	0xbdeff114	-0.11715904
66	0xbdddcf94	-0.10830608
67	0x3945e89f	0.00018874042
68	0x3e1b180c	0.15145892
69	0x3e1a9052	0.15094116
70	0xbd9ffd8a	-0.078120306
71	0x3dca105d	0.09866402
72	0xbd472117	-0.04861554
73	0xbd1e1ae3	-0.03859986
74	0x3dfb9b03	0.122854255
75	0x3dd9c1b3	0.10632648
76	0x3e1fb9d8	0.15598238
77	0xbe027970	-0.12741637
78	0xbdce2cd2	-0.100671425
79	0x3e0adef4	0.13561612
80	0xbdf08c9d	-0.1174557
81	0xbdef5406	-0.11685948
82	0xbda6b3bb	-0.081397496
83	0xbdd558e2	-0.10417344
84	0x3d141449	0.036152158
85	0x3d81af61	0.06332279
86	0xbddbedfa	-0.1073875
87	0x3df4ed54	0.11959329
88	0x3d97d2c1	0.07413245
89	0x3dd17ee8	0.102292836
90	0xbe0551ae	-0.1301944
91	0x3e1d949b	0.1538872
92	0xbdd6a3b0	-0.1048044
93	0x3dda1d53	0.106501244
94	0x3d9d846c	0.07691273
95	0x3e08e52c	0.13368672
96	0x3df41325	0.11917714
97	0x3e1824d7	0.14857803
98	0x3d629d36	0.05532571
99	0x3da56b86	0.08077149
100	0x3d2d6003	0.042327892
101	0xbd4040da	-0.046936847
102	0x3ded6f35	0.11593477
103	0xbde2d4ca	-0.110757425
104	0xbd55f27b	-0.0522332
105	0xbe106f1c	-0.14104885
106	0xbde227bd	-0.11042736
107	0xbd88116d	-0.06643949
108	0x3b917b4b	0.0044397465
109	0xbd163a8c	-0.03667693
110	0xbbd1849c	-0.006393982
111	0x3e1a7c69	0.15086521
112	0xbdf6abba	-0.12044473
113	0x3e0db7bf	0.13839625
114	0x3e1765ef	0.14784978
115	0xbd3dc9b1	-0.046334926
116	0xbe034a81	-0.1282139
117	0xbe040013	-0.12890653
118	0x3d1fbc36	0.03899785
119	0x3d2e5c4e	0.042568497
120	0xbd790fb8	-0.060806006
121	0x3d5e1205	0.054216404
122	0x3cc7f1f8	0.024407372
123	0xbd8c6b20	-0.0685637
124	0x3d969c41	0.07354022
125	0x3d5663aa	0.05234114
126	0xba9c17b4	-0.001190892
127	0xbdf30152	-0.11865486
128	0xbd092ccd	-0.03348999
129	0x3cb58c0c	0.022161506
130	0x3d2179d3	0.03942282
131	0xbce68d4a	-0.028143544
132	0x3d974280	0.07385731
133	0x3e24ea9c	0.16105121
134	0x3da337d9	0.079696365
135	0x3e0924cf	0.13392948
136	0x3da01b8b	0.078177534
137	0x3dbd18c1	0.09233237
138	0xbc77de05	-0.015128617
139	0x3da07919	0.078355975
140	0xbdd7dfe1	-0.105407484
141	0x3e18c788	0.14919865
142	0x3e03caac	0.12870282
143	0xbd2a1257	-0.041521396
144	0xbdde44bd	-0.108529545
145	0x3bf8b519	0.007589948
146	0x3df15f2e	0.11785732
147	0x3de42647	0.11140113
148	0x3e1b0c47	0.15141402
149	0xbdfcc39b	-0.12341996
150	0x3cbce198	0.02305679
151	0xbe149e31	-0.1451347
152	0x3d97d3b4	0.07413426
153	0xbdbffc0a	-0.093742445
154	0xbc15709d	-0.009121087
155	0x3e02dcab	0.1277949
156	0xbddc0654	-0.107433945
157	0xbdc604ce	-0.09668885
158	0x3d55fe6a	0.05224458
159	0xbdea5b4d	-0.114431955
160	0xbe069bd6	-0.13145384
161	0x3c2fb212	0.010723608
162	0x3d9f8130	0.077883124
163	0x3c4784a0	0.012177616
164	0xbcd5b1c4	-0.026085742
165	0xbdc68951	-0.0969416
166	0x3ddf6e37	0.10909694
167	0xbe127db8	-0.1430577
168	0x3d67ebbf	0.05662131
169	0x3daa0da8	0.08303386
170	0x3de6e3b8	0.11273903
171	0x3dc4a01b	0.0960085
172	0x3d737a50	0.05944282
173	0xbdc83b4a	-0.097769335
174	0xbdd50434	-0.10401192
175	0xbb7907de	-0.0037999074
176	0xbd96de84	-0.0736666
177	0xbc3aeb02	-0.011408569
178	0x3a35b3c4	0.0006931389
179	0x3c1a11e9	0.009403684
180	0x3de5a648	0.11213356
181	0x3da93493	0.08261981
182	0x3d0aeee9	0.03391925
183	0xbd8bcd4f	-0.06826269
184	0x3d46bebf	0.048521753
185	0x3d2ef262	0.042711623
186	0xbd830fa4	-0.063994676
187	0xbe00f6e1	-0.12594177
188	0xbc45db6c	-0.01207624
189	0xbdba7480	-0.09104252
190	0xbe02735a	-0.12739316
191	0x3e01e2f3	0.1268423
192	0x3dc1cac1	0.094625
193	0x3ddc4cf7	0.107568674
194	0xbdd3034e	-0.10303365
195	0x3d84c865	0.06483535
196	0xbcf5f871	-0.030025693
197	0xbe10ff49	-0.14159884
198	0x3df80a8a	0.12111385
199	0xbd858e69	-0.06521303
200	0xbcd92a9e	-0.02650958
201	0xbc30cdd0	-0.010791257
202	0x3df60da0	0.120143175
203	0x3e015e1d	0.12633558
204	0xbdb26beb	-0.0871199
205	0xbda56034	-0.0807499
206	0x3e15bd49	0.14622988
207	0xbde65a38	-0.112476766
208	0x3d9c951e	0.07645629
209	0x3d8b39f2	0.067981616
210	0x3d2321d6	0.03982719
211	0xbcd593f5	-0.026071528
212	0xbe05558b	-0.13020913
213	0x3d9e5a41	0.07732058
214	0x3d7f7cc1	0.062374834
215	0x3d790391	0.060794417
216	0x3e25b063	0.16180567
217	0x3d490181	0.0490737
218	0x3b15050a	0.00227386
219	0x3da12f36	0.07870333
220	0xbddf5924	-0.10905674
221	0xbdb0730a	-0.08615692
222	0xbdd4eddb	-0.1039693
223	0xbc8c9980	-0.017163038
224	0x3dae77e0	0.08518958
225	0xbe082f75	-0.13299353
226	0x3dfcee0c	0.12350091
227	0xbdbde0e9	-0.09271414
228	0xbde4a48b	-0.111641966
229	0x3d80fc4e	0.06298123
230	0x3df6c154	0.12048593
231	0x3e20cb7c	0.15702623
232	0xbdc520be	-0.09625386
233	0x3da34180	0.079714775
234	0x3dc88e4f	0.09792768
235	0xbca9f1cd	-0.020745182
236	0xbd87cd89	-0.066309996
237	0xbd25bfae	-0.040466003
238	0xbe0c8264	-0.13721615
239	0xbda8653a	-0.082224324
240	0x3da9191b	0.082567416
241	0x3db2a856	0.08723514
242	0x3c7ac9d5	0.01530691
243	0x3d8df7b5	0.06932012
244	0x3e021c8c	0.12706202
245	0x3d31d16b	0.043412607
246	0x3e1f4469	0.1555344
247	0x3b05c7a5	0.0020413187
248	0xbc3ce728	-0.011529721
249	0x3d72afeb	0.0592498
250	0x3d75381b	0.05986796
251	0x3cc402c5	0.023927102
252	0x3d72a05a	0.059234954
253	0x3c293a48	0.010328837
254	0x3d0c1ec4	0.034209028
255	0x3e0372f3	0.12836818

fc_input.weight f4 [128, 64]
0	0x3d245b52	0.040126152
1	0xbd52d96c	-0.05147688
2	0xbcc479ad	-0.0239838
3	0x3d891e7d	0.06695268
4	0xbcbe5b23	-0.023236817
5	0x3da0955b	0.07840987
6	0xbd3674cb	-0.044544976
7	0xbd700e56	-0.05860742
8	0x3d39a4ec	0.045323297
9	0xbcca3ba0	-0.024686635
10	0x3ce30678	0.027713045
11	0xbd0c2dde	-0.03422343
12	0x3e0471a7	0.1293398
13	0xbc84ff32	-0.016234968
14	0x3daba942	0.08381893
15	0xbde64eda	-0.112455085
16	0x3d30ec29	0.04319397
17	0x3c950384	0.018190153
18	0x3de3c1c3	0.111209415
19	0x3d7de8d2	0.061989613
20	0x3d8c174e	0.068403825
21	0xbdc94642	-0.09827854
22	0x3d219113	0.039444994
23	0xbd48a15d	-0.048982013
24	0xbdb9705f	-0.09054636
25	0xbd0a5ed3	-0.033781838
26	0xbcbd656a	-0.023119647
27	0x3cabce45	0.02097238
28	0x3b662669	0.003511811
29	0x3dda2277	0.10651105
30	0x3db7677c	0.08955285
31	0x3d1b55d2	0.03792364
32	0xbcec110b	-0.02881672
33	0xbda6f0e7	-0.08151417
34	0xbd337c46	-0.04381969
35	0xbd12779e	-0.035758607
36	0xbce6f0f2	-0.028191064
37	0x3e04a645	0.12954052
38	0x3d764151	0.060120884
39	0x3de99ce1	0.114068754
40	0x3adf20d0	0.0017023329
41	0x3d6a2660	0.057165504
42	0x3b183048	0.0023222137
43	0xbd92d0b3	-0.071687125
44	0xbcc7d61e	-0.024394091
45	0x3debd16c	0.115145534
46	0xbdb0ec77	-0.08638852
47	0xbc0b3b9d	-0.0084981
48	0xbdb8d45a	-0.09024878
49	0x3d3add33	0.04562111
50	0xbd6dccff	-0.058056828
51	0xbd8cd7b1	-0.06877077
52	0xbdc50e6c	-0.096218914
53	0xbdcfe4bd	-0.1015105
54	0x3de920b6	0.11383192
55	0xbd508298	-0.050905794
56	0x3d917c48	0.07103783
57	0xbdff066d	-0.124523975
58	0xbc8875c4	-0.016657718
59	0xbca5f494	-0.020258226
60	0xbdc5674c	-0.09638843
61	0xbcad86d7	-0.02118246
62	0xbd11c1c7	-0.03558519
63	0x3e0fad03	0.14030842
64	0x3c96b463	0.018396562
65	0x3d7bc38e	0.061465792
66	0x3dc77059	0.097382255
67	0xbda534d8	-0.0806672
68	0xbd611815	-0.054954607
69	0x3d21bab3	0.03948469
70	0xbda843fe	-0.082160935
71	0xbdd34362	-0.103155866
72	0xbda5d002	-0.08096315
73	0xbded2b62	-0.1158054
74	0xbda193a7	-0.078894906
75	0x3df06f12	0.11739935
76	0xbdfb676a	-0.12275584
77	0x3dbfbb88	0.093619406
78	0x3d827968	0.06370813
79	0xbd89683f	-0.067093365
80	0xbc3f87fb	-0.011690135
81	0xbd6bd33c	-0.057574496
82	0x3d2f2a55	0.04276498
83	0x3d6eb7d8	0.058280796
84	0xbdb10c19	-0.086448856
85	0xbda4edb9	-0.080531545
86	0x3dbe6ac6	0.09297709
87	0xbdf4c0da	-0.11950846
88	0x3df4f928	0.11961585
89	0x3db30dbc	0.08742854
90	0xbdce251c	-0.10065672
91	0xbdbb2db8	-0.091395795
92	0x3d38ce23	0.045118462
93	0xbb854d7a	-0.004068074
94	0x3b7000f5	0.0036621664
95	0xbb767f57	-0.0037612522
96	0x3d92dc4c	0.071709245
97	0xbd0d908c	-0.03456168
98	0xbd0357fd	-0.032066334
99	0x3d032856	0.03202089
100	0xbd366a30	-0.044534862
101	0x3ca55bab	0.020185312
102	0x3dcbf899	0.099595256
103	0xbe00cc37	-0.12577902
104	0x3da54bf4	0.080711275
105	0xbddaf015	-0.10690323
106	0x3dabac69	0.08382494
107	0xbdafb7be	-0.08579968
108	0xbcf5ce6a	-0.030005652
109	0x3d4fbc08	0.05071643
110	0x3ccc7381	0.02495742
111	0xbcacf9b3	-0.02111516
112	0x3db1b2a9	0.08676655
113	0xbc4ff6df	-0.012693136
114	0x3df18769	0.117934056
115	0x3db27265	0.08713225
116	0xbdab2245	-0.08356146
117	0xbd815b0b	-0.06316193
118	0xbdd8621d	-0.105655886
119	0xbdea1dc5	-0.11431459
120	0x3d3c0fe1	0.04591358
121	0x3d52497f	0.051339623
122	0xbd4feaab	-0.050760906
123	0x3d84b5d6	0.06479995
124	0x3db36018	0.08758563
125	0x3d356c66	0.04429283
126	0x3d847465	0.06467513
127	0x3ca127ee	0.01967236
128	0x3d208c49	0.039196286
129	0xbc4dfe00	-0.012572765
130	0x3de520da	0.111879066
131	0x3dab4338	0.0836243
132	0x3dc761f8	0.09735483
133	0x3c21658c	0.009850871
134	0x3dec377f	0.115340225
135	0x3df29a21	0.11845804
136	0xbd50f985	-0.05101921
137	0x3d9669d3	0.07344403
138	0xbd90f6a1	-0.07078291
139	0x3dba5d5f	0.090998404
140	0xbb3a9c43	-0.0028474487
141	0xbcfc9f03	-0.030837541
142	0x3cb62fb1	0.022239538
143	0x3d8267b2	0.063674346
144	0xbda138ba	-0.07872148
145	0x3d9d3b81	0.07677365
146	0xbd8b496b	-0.06801113
147	0xbbc43774	-0.005988056
148	0x3d38b327	0.045092728
149	0xbcbdff44	-0.02319301
150	0xbc017710	-0.007901922
151	0xbda0bed7	-0.078489
152	0xbdf6c385	-0.12049011
153	0xbd3bf88e	-0.045891337
154	0x3cc88e1f	0.024481831
155	0xbcd9fac7	-0.026608838
156	0x3c3cb4cb	0.011517714
157	0x3d5c5aa7	0.05379739
158	0x3df04fbf	0.1173396
159	0xbdb319a9	-0.08745129
160	0x3de8b053	0.11361756
161	0x3d9ae659	0.075634666
162	0x3dafc32a	0.085821465
163	0xbd34e700	-0.04416561
164	0x3d06a365	0.03287067
165	0x3da895db	0.08231708
166	0xbd953f5e	-0.07287477
167	0xbd411a49	-0.047144208
168	0xbdd74e44	-0.10512975
169	0xbd1a0979	-0.03760669
170	0xbd03a495	-0.03213938
171	0x3d860855	0.06544558
172	0x3d1a3fc2	0.03765846
173	0x3d27b946	0.040948175
174	0x3ce9c2f3	0.028535342
175	0x3df94b51	0.121725686
176	0x3dea0786	0.11427216
177	0xbdeeefc3	-0.11666825
178	0x3d38724c	0.045030877
179	0x3dd7987b	0.1052713
180	0x3d0d28d6	0.034462772
181	0x3d5156e3	0.051108252
182	0x3c82656f	0.015917508
183	0x3c4716ef	0.012151464
184	0xbe0a7108	-0.1351968
185	0xbd91e6c6	-0.07124095
186	0x3d7774f6	0.060414277
187	0x3df51ec0	0.11968756
188	0xbdec707c	-0.11544892
189	0x3d81d978	0.06340307
190	0x3d85edca	0.06539495
191	0xbc86f0e0	-0.01647228
192	0xbc36f26f	-0.011166199
193	0x3dd45cbb	0.103692494
194	0x3d0d3059	0.034469936
195	0xbdc103da	-0.09424563
196	0x3dacad75	0.08431522
197	0x3d011c49	0.031521115
198	0x3d9a8f45	0.07546858
199	0xbdcabd89	-0.09899432
200	0xbcc0279b	-0.023456385
201	0x3dc0d818	0.094162166
202	0xbdccc544	-0.09998563
203	0xbc811067	-0.015754892
204	0xbca35128	-0.01993616
205	0xbc96ad6c	-0.01839324
206	0xbcc7c2e9	-0.024384933
207	0xbda3f863	-0.080063604
208	0xbde7e827	-0.113235764
209	0xbda88d75	-0.08230106
210	0xbd8bfcc7	-0.06835323
211	0xbc0126b7	-0.0078827655
212	0x3c8c1a39	0.017102348
213	0xbdc157f2	-0.09440602
214	0x3de57932	0.11204757
215	0xbd25097d	-0.04029225
216	0xbdf7446f	-0.120735995
217	0x3c2167b8	0.009851389
218	0xbe012aef	-0.12614034
219	0xbdbcd924	-0.09221104
220	0x3d52ea42	0.051492937
221	0xbd483e2f	-0.048887428
222	0x3df3024b	0.11865672
223	0xbc38e57f	-0.011285185
224	0xbdaf810f	-0.08569538
225	0xbdc2e082	-0.09515478
226	0x3de0fb34	0.10985413
227	0xbd2b7f06	-0.041869186
228	0xbd55d1ff	-0.05220222
229	0xbd122257	-0.03567728
230	0xbd6d579b	-0.057944875
231	0x3cfb3623	0.030665463
232	0x3cc4674e	0.02397504
233	0x3dd2f6c3	0.10300972
234	0x3dbc0ca5	0.09182099
235	0x3ba56db4	0.005048478
236	0xbd505a6a	-0.050867476
237	0xbd10d78b	-0.035361808
238	0xbdf47687	-0.1193667
239	0xbd3799a2	-0.04482425
240	0xbdd4febb	-0.104001485
241	0xbdf396f0	-0.118940234
242	0xbd2346a2	-0.039862283
243	0xbcfdf02f	-0.030998318
244	0xbd7aae77	-0.06120154
245	0xbd65a6d7	-0.056067314
246	0xbc0c0f6b	-0.008548598
247	0x3d951707	0.07279783
248	0x3dcd15cb	0.10013922
249	0x3d902043	0.070374034
250	0xbdaa70b0	-0.08322275
251	0xbd97a66e	-0.07404791
252	0x3b82ad25	0.0039879256
253	0x3cabc6c3	0.0209688
254	0x3d117ad5	0.035517532
255	0xbdb77ebf	-0.08959722
